misc/2023/modelsave0_(21-40).pt (torch, 1889 bytes, 4 tensors)

net.0.weight f4 [10, 1]
000000 92 1a 11 bf 74 e9 d2 be b6 60 3f bf 36 b4 15 bf
       -0.5668117 -0.41193736 -0.74756944 -0.58478105
000010 40 c9 a9 be 70 57 01 3e 00 7f bd bb 7a fe 67 3f
       -0.33161354 0.12631011 -0.005782962 0.90622675
000020 0c 87 db be 48 29 6a 3f
       -0.4287647 0.9146924

net.0.bias f4 [10]
000000 f8 b3 d4 be 00 36 16 3d 20 5f a1 3d fc 6c 57 bf
       -0.41543555 0.036672592 0.07879472 -0.8415067
000010 e4 bf 93 3e 30 3b 21 be 8a 06 11 3f 10 3a d5 3d
       0.28857338 -0.15745234 0.566506 0.10411465
000020 e0 18 7c bd 68 20 a2 be
       -0.06154716 -0.3166535

net.2.weight f4 [4, 10]
000000 d4 1a 99 bd 88 66 28 be b2 a2 66 3e 31 47 70 be
       -0.0747582 -0.16445363 0.22523001 -0.23464657
000010 04 3a c2 bd e2 25 7a be f6 7d 26 3e ad 0b 8c 3e
       -0.09483722 -0.24428514 0.16258988 0.27352658
000020 d0 f7 71 3d c2 4e 41 3e ef 1c 9c be ea 11 32 be
       0.059074223 0.188777 -0.30490825 -0.17389646
000030 0c 96 20 3e 84 12 8c be cc f5 5b be 70 96 e6 bd
       0.15682238 -0.27357876 -0.21480483 -0.112591624
000040 9b ed 8e 3e 86 0b a0 be 82 70 56 be a1 43 47 be
       0.27915654 -0.31258792 -0.20941356 -0.19459392
000050 4f 2a 3d be 82 65 61 3e c0 ce 20 3e 6c 28 42 be
       -0.1847317 0.22011378 0.15703869 -0.18960732
000060 bb 85 2f be a5 f3 19 be 76 73 0c be f4 29 bd bd
       -0.17140858 -0.1503435 -0.1371592 -0.092365175
000070 fb f9 90 3e 58 52 3e 3d 96 80 42 3e 46 c2 42 3e
       0.2831572 0.046465248 0.18994364 0.19019422
000080 b6 18 59 3e c5 9d 01 be 90 07 f2 3c 50 d2 db 3d
       0.21200833 -0.1265784 0.029544622 0.10733473
000090 80 71 2e bd 26 1a 56 be d7 1d 91 3e 48 76 d0 3d
       -0.04258871 -0.20908412 0.28343078 0.1017881

net.2.bias f4 [4]
000000 c0 93 5d bd 5e d3 37 be 22 f5 5b 3e 2d b4 99 3e
       -0.054095984 -0.17951724 0.2148023 0.30020276
